model.pt (torch_old, 37420 bytes, 6 tensors)

fc1.weight f4 [128, 37]
0	0x3d274e6e	0.04084628
1	0xbcc61370	-0.02417919
2	0xbe2d9d05	-0.1695443
3	0xbe2cf103	-0.16888814
4	0xbd109c5b	-0.035305362
5	0x3c6bb82c	0.014387172
6	0xbd4e47a1	-0.05036128
7	0x3c27a721	0.010232718
8	0xbd64fbde	-0.05590426
9	0x3e6290a6	0.22125491
10	0xbdc0690e	-0.093950376
11	0xbe615527	-0.2200514
12	0xbde0f475	-0.109841265
13	0xbe728e0a	-0.23686996
14	0xbf19e359	-0.6011253
15	0xbd4a04b3	-0.049320888
16	0x3c86d01c	0.016456656
17	0x3e1bfc70	0.15233016
18	0xbea21524	-0.31656754
19	0xbdb6eb3c	-0.08931586
20	0x3d7f56ca	0.062338628
21	0xbeb3bf7b	-0.35107026
22	0x3dec4a9c	0.11537668
23	0xbe2aecad	-0.16691847
24	0xbef6afdc	-0.48181045
25	0xbe07e165	-0.13269575
26	0x3cbbffb1	0.022949072
27	0x3c97e1ba	0.018540252
28	0xbde22f4b	-0.11044177
29	0x3c8cc193	0.017182147
30	0x3c0e4796	0.00868406
31	0xbe0dd1a2	-0.138495
32	0xbe91a671	-0.28447297
33	0xbcfae1a1	-0.030625166
34	0xbea6ee72	-0.32603794
35	0xbe4d2744	-0.2003451
36	0xbda5a724	-0.0808852
37	0x3e1667ab	0.14687984
38	0x3da82bd8	0.082114875
39	0x3d8ad5f1	0.06779087
40	0x3c652ed1	0.013988213
41	0xbdc08b8f	-0.09401619
42	0x3e23bbec	0.15989655
43	0xbe44f46b	-0.19233863
44	0xbe9a71b5	-0.30164877
45	0xbeae28e3	-0.3401557
46	0xbebe7524	-0.37198746
47	0x3e12592c	0.14291829
48	0xbd47a86d	-0.048744608
49	0xbd3320c3	-0.043732416
50	0x3ce8c0f9	0.028412329
51	0x3e149e8c	0.14513606
52	0x3d8d2521	0.068918474
53	0xbd31277c	-0.043250546
54	0x3dd495a9	0.10380108
55	0xbc999405	-0.018747339
56	0xbdc12261	-0.094303854
57	0xbd4d4352	-0.05011303
58	0xbdd17998	-0.1022827
59	0xbe740b56	-0.2383245
60	0x3dd88ee5	0.1057413
61	0x3da1be17	0.07897585
62	0xbdc5bcc0	-0.09655142
63	0x3dce0188	0.10058886
64	0x3d14bfe9	0.036315832
65	0x3ca76b4b	0.020436903
66	0x3d5a2a47	0.053262975
67	0x3d5ab773	0.053397607
68	0x3dcd90f8	0.10037416
69	0x3da79445	0.08182577
70	0xbcbc2a9d	-0.022969538
71	0xbd327804	-0.043571487
72	0x3ca5b356	0.020227116
73	0x3d41f20c	0.047349975
74	0x3d8ffedc	0.070310324
75	0xbb940cc6	-0.0045181243
76	0x3df2d3db	0.118568145
77	0xbe12ad4d	-0.14323922
78	0xbd6ff466	-0.058582686
79	0xbedade30	-0.4274764
80	0xbec8cbbd	-0.3921794
81	0x3e512ebc	0.20427984
82	0x3e258eea	0.16167799
83	0xbfb5ceb0	-1.4203701
84	0xbee87f71	-0.4540973
85	0x3dc72435	0.09723703
86	0x3c074d12	0.008258121
87	0xbe50399f	-0.2033448
88	0xbe95d4ba	-0.2926386
89	0xbb1fb41e	-0.0024368833
90	0xbe455347	-0.19270049
91	0x3e3fe3e4	0.18739277
92	0xbeb94197	-0.36182854
93	0xbe1baeb8	-0.15203369
94	0xbe5f967c	-0.21834749
95	0xbf098433	-0.53717345
96	0x3dfe3817	0.12413042
97	0xbe0948e1	-0.13406707
98	0xbf4df627	-0.80453724
99	0xbec44ea8	-0.3834126
100	0x3e627ba2	0.22117475
101	0x3e2b6110	0.16736245
102	0xbe35cdec	-0.17754334
103	0xbf11f782	-0.5701829
104	0xbe6f30f2	-0.23358515
105	0xbd8000a5	-0.06250123
106	0xbdf625b9	-0.12018914
107	0xbddb73ff	-0.10715484
108	0xbeced39d	-0.40395823
109	0x3e3942ae	0.18091843
110	0x3d3218ad	0.043480564
111	0x3eb101e7	0.34571764
112	0xbee6fc05	-0.4511415
113	0xbcb3e206	-0.021958362
114	0xbd07df40	-0.033171892
115	0xbf269871	-0.6507636
116	0xbd8d1a9b	-0.0688984
117	0xbd90199c	-0.070361346
118	0xbbb3d3c6	-0.005487892
119	0x3e891935	0.26777044
120	0x3e1ffc17	0.15623508
121	0xbb94b17c	-0.0045377593
122	0xbd05c858	-0.032661766
123	0x3cc28545	0.023745188
124	0xbdb66ef9	-0.08907885
125	0xbe0588c0	-0.13040447
126	0xbd72453e	-0.059148066
127	0x3dcbb29d	0.09946177
128	0xbdd02b23	-0.10164478
129	0xbdbfe767	-0.09370308
130	0xbeaf6b02	-0.34261328
131	0xbc8f3d23	-0.017485207
132	0xbdb2aeb9	-0.08724732
133	0x3d6a1080	0.057144642
134	0x3e012ded	0.12615176
135	0xbc93db65	-0.018048951
136	0xbd90234c	-0.07037982
137	0x3d6009fd	0.054697026
138	0x3e13cfb1	0.14434697
139	0x3da98545	0.08277372
140	0x3ec72bfa	0.3890074
141	0x3c5328e4	0.012888167
142	0x3e2cdb63	0.16880564
143	0x3d97923b	0.07400938
144	0x3d04fa35	0.03246518
145	0xbda87370	-0.08225143
146	0x3d89991a	0.06718655
147	0xbabffeb1	-0.0014648048
148	0xbe3d8362	-0.1850715
149	0xbe025fd5	-0.1273187
150	0xbdaf6db4	-0.08565846
151	0xbde2a04e	-0.11065732
152	0x3d5f5f06	0.05453398
153	0xbd3be172	-0.0458693
154	0x3e5246b1	0.20534779
155	0xbe1376b0	-0.14400744
156	0x3ea98fa1	0.33117393
157	0x3eb9afd4	0.3626696
158	0xbdc5c261	-0.096562155
159	0xbc833d39	-0.016020404
160	0xbe07ff15	-0.132809
161	0x3ddb1c04	0.10698703
162	0xbe0a448b	-0.1350271
163	0xbe9e5a26	-0.30928153
164	0x3d568963	0.052377116
165	0x3be66cf8	0.007032033
166	0xbd0fef69	-0.03514043
167	0x3e2112ad	0.1572978
168	0xbe1fa1db	-0.15589087
169	0xbde3e643	-0.11127903
170	0x3e67efa0	0.22650003
171	0xbe0300b3	-0.12793235
172	0x3dc2a8b7	0.09504836
173	0x3e0eff58	0.13964593
174	0xbdc275c0	-0.09495115
175	0xbe042c9a	-0.12907639
176	0xbcf10085	-0.029419193
177	0xbe5aa8b0	-0.21353412
178	0x3e1d1f28	0.15343916
179	0xbe143075	-0.1447161
180	0x3cf47a5f	0.029843507
181	0xbe7744aa	-0.24147287
182	0x3e804a2f	0.25056598
183	0x3d8aba6f	0.06773841
184	0x3affaff6	0.0019507397
185	0x3d0dad2c	0.034588978
186	0xbd81ac20	-0.06331658
187	0xbdb87d14	-0.09008232
188	0xbe03c1f4	-0.12866956
189	0xbd92a6a6	-0.07160692
190	0x3e8161d5	0.25269952
191	0xbd3b7617	-0.045766916
192	0xbeda4673	-0.42631873
193	0xbe63605c	-0.22204727
194	0xbf8bbe7e	-1.0917509
195	0xbb58bc20	-0.0033071116
196	0xbd4e0a7d	-0.05030297
197	0xbe01f230	-0.12690043
198	0xbe1ecb54	-0.15507251
199	0x3d8c21e1	0.068423994
200	0xbd91ee04	-0.07125476
201	0x3d5682ca	0.052370824
202	0xbdd0d7e1	-0.10197426
203	0xbd22e111	-0.03976542
204	0xbe0b06e7	-0.13576852
205	0x3da5ec06	0.081016585
206	0xbd0933c5	-0.033496637
207	0x3dad0a72	0.08449258
208	0x3d16a14c	0.03677492
209	0x3ceaf4bb	0.02868115
210	0x3c0aba30	0.008467242
211	0xbdae3284	-0.08505729
212	0xbcee8a94	-0.029118814
213	0xbde84420	-0.11341119
214	0x3d167201	0.036729816
215	0xbc8f722a	-0.017510492
216	0xbdb6f0ed	-0.08932672
217	0xbd88f1ef	-0.0668677
218	0x3dba57dc	0.09098789
219	0xbe40670a	-0.18789306
220	0x3e2b519b	0.16730349
221	0x3dc40a92	0.095723286
222	0x3b0e7d8e	0.0021742317
223	0x3dd2aa79	0.10286421
224	0xbe18af5c	-0.14910644
225	0xbc7ca434	-0.015420008
226	0xbe2e084a	-0.1699535
227	0xbd923b67	-0.07140236
228	0x3d92b91c	0.07164213
229	0xbe165338	-0.14680183
230	0x3e2fe641	0.17177679
231	0x3eab1498	0.3341415
232	0x3d5b3086	0.053513072
233	0xbb290763	-0.0025791756
234	0x3e322827	0.1739813
235	0xbd10e8d3	-0.03537829
236	0x3e545f3c	0.20739454
237	0xbe201c41	-0.15635778
238	0xbce87340	-0.028375268
239	0x3dba1e87	0.09087854
240	0xbd4ffb72	-0.050776906
241	0xbc958239	-0.018250572
242	0xbc5652f5	-0.013081302
243	0xbdcf7cb7	-0.10131209
244	0x3d78f4e1	0.06078041
245	0xbdd76927	-0.10518103
246	0x3cd6486e	0.026157584
247	0xbd873fd0	-0.06603968
248	0xbcbb25bb	-0.02284514
249	0xbdacd0d2	-0.08438267
250	0xbde205e8	-0.11036283
251	0xbda97ea8	-0.08276111
252	0x3e418551	0.18898512
253	0xbe718fb0	-0.23589969
254	0x3d6d04b6	0.05786582
255	0xbe459ef5	-0.19298919

fc1.bias f4 [128]
0	0xbd82cd69	-0.06386835
1	0x3d3c3161	0.04594553
2	0xbd225309	-0.03962997
3	0xbcd389a4	-0.025822468
4	0xbd63b893	-0.055595946
5	0xbdfe8488	-0.12427622
6	0x3dbd03c5	0.092292346
7	0x3cd51192	0.026009355
8	0xbe09498f	-0.13406967
9	0x3e0592e4	0.13044316
10	0xbe274ebf	-0.16338633
11	0xbd293ff1	-0.041320745
12	0xbd4efcda	-0.050534107
13	0xbca169de	-0.019703802
14	0xbd9d9837	-0.07695048
15	0x3ca2f398	0.019891545
16	0x3d7c9f2a	0.06167523
17	0xbe02c80a	-0.12771621
18	0xbd90a0e9	-0.07061941
19	0x3bafed99	0.0053689
20	0xbdf30d9d	-0.11867831
21	0x3d846c7d	0.06466005
22	0x3e2895bc	0.16463369
23	0xbc8fe508	-0.017565265
24	0xbd17749b	-0.036976438
25	0x3ddb5b0a	0.10710724
26	0x3e12d92a	0.14340654
27	0x3c1b5ef6	0.00948309
28	0xbd050ffe	-0.032485954
29	0xbda90a6e	-0.082539424
30	0x3dc2fd62	0.09520985
31	0x3dd61fa1	0.104552515
32	0xbd781f58	-0.060576767
33	0x3c8f7643	0.017512446
34	0x3d3ac41b	0.045597177
35	0xbe3350e2	-0.17511323
36	0x3ca4f5a8	0.02013667
37	0x3e1ac257	0.15113197
38	0xbce81b68	-0.02833338
39	0xbcc1ee96	-0.023673337
40	0x3cbf805a	0.023376632
41	0x3e225424	0.1585241
42	0x3e532b15	0.20621903
43	0x3c934669	0.01797791
44	0x3d97c26b	0.07410129
45	0xbdfdf6ed	-0.12400613
46	0x3dc8e820	0.09809899
47	0xbd99e96d	-0.075152256
48	0xbe02950f	-0.12752174
49	0x3db65c1a	0.08904286
50	0x3d18c912	0.03730113
51	0x3d6b8876	0.057503186
52	0xbc4983ec	-0.012299519
53	0x3df9ead8	0.12202996
54	0x3ce9cec5	0.028540978
55	0x3d7f52c2	0.062334783
56	0xbd9d0e2e	-0.0766872
57	0xbd9d0482	-0.076668754
58	0x3cde376d	0.027126038
59	0xbdc9a365	-0.09845618
60	0xbe35526f	-0.17707227
61	0xbb6bd098	-0.0035982486
62	0x3d7c2f43	0.06156851
63	0xbdcd3253	-0.10019364
64	0x3e2912d5	0.1651109
65	0x3d1e7bd0	0.038692296
66	0x3d3bdd3f	0.045865294
67	0xbdf8bebe	-0.12145756
68	0xbde1fe39	-0.11034817
69	0xbe0c8e8b	-0.13726251
70	0x3d6fd527	0.058552887
71	0xbdc04cdb	-0.09389659
72	0x3dd3a6bc	0.103345364
73	0xbdbbcbe1	-0.09169746
74	0xbd9affba	-0.07568307
75	0x3c293f76	0.010330072
76	0x3e4d1147	0.20026122
77	0xbdd0709b	-0.10177728
78	0x3db191cc	0.08670387
79	0x3cc3b610	0.023890525
80	0xbce5e9a5	-0.028065512
81	0x3deec9ab	0.11659559
82	0x3d67263d	0.05643295
83	0xbd082939	-0.033242438
84	0xbd891cc2	-0.06694938
85	0x3e310627	0.17287503
86	0x3dbfab48	0.09358841
87	0xbcc49329	-0.023995953
88	0xbd3da900	-0.04630375
89	0x3cf743e0	0.030183733
90	0x3d91ade6	0.071132466
91	0xbcc9ff54	-0.024657883
92	0xbdff6979	-0.12471289
93	0xbdcdbe3b	-0.10046049
94	0xbd031820	-0.03200543
95	0x3d5a9bf2	0.053371377
96	0x3c581417	0.013188384
97	0xbd426ca0	-0.047466874
98	0xbd310201	-0.0432148
99	0x3df6f21f	0.120579
100	0xbd693746	-0.05693748
101	0xbe1cb94e	-0.15305063
102	0x3e1362b3	0.1439312
103	0x3df2758d	0.11838827
104	0xbe32cd4d	-0.17461129
105	0xbe098fc0	-0.13433743
106	0xbd5bc8db	-0.053658348
107	0x3dea5d1f	0.11443543
108	0xbd72debd	-0.05929445
109	0x3c1edb40	0.009695828
110	0x3dd86dc9	0.10567815
111	0xbd20102d	-0.039077926
112	0xbd864002	-0.06555177
113	0xbdaf160a	-0.085491255
114	0x3ce4605d	0.02787798
115	0x3e208807	0.1567689
116	0x3d7f108b	0.062271636
117	0x3de71b64	0.11284521
118	0xbd22ffe5	-0.03979482
119	0xbd0f2010	-0.034942687
120	0x3d66203a	0.056183077
121	0x3d3812de	0.04493987
122	0xbcda6bcb	-0.026662728
123	0xbe286809	-0.16445936
124	0xbd2844b0	-0.04108113
125	0x3d77e70c	0.060523078
126	0x3e3bfa1c	0.18357128
127	0xbcbb12c9	-0.022836106

fc2.weight f4 [32, 128]
0	0x3df8340d	0.12119303
1	0xbd8149f8	-0.063129365
2	0xbe12271d	-0.14272733
3	0x3d2de47a	0.04245422
4	0xbd94209c	-0.07232782
5	0xbb6fde18	-0.0036600884
6	0x3dae853b	0.085215054
7	0xbcbc97ac	-0.023021542
8	0x3e5e05b3	0.21681862
9	0x3da610dc	0.081086844
10	0x3dc80a87	0.09767633
11	0xbe2b3b22	-0.16721776
12	0xbe5dc4cd	-0.21657105
13	0xbd3a69e9	-0.04551116
14	0x3b902717	0.004399191
15	0xbdc700ec	-0.09716973
16	0xbd804088	-0.06262308
17	0x3d14a088	0.036285907
18	0xbc09a166	-0.008400297
19	0x3d1c9725	0.03823008
20	0x3e15eb2b	0.1464049
21	0xbdb5e6c6	-0.08881907
22	0xbdbf05f0	-0.09327304
23	0x3d7a1474	0.061054662
24	0xbd84dbd7	-0.064872436
25	0x3db0320a	0.08603294
26	0x3d985881	0.07438756
27	0xbe379037	-0.17926107
28	0xbd6f4a48	-0.05842045
29	0x3eb8a08e	0.36059994
30	0x3cf68fa4	0.03009779
31	0xbc8940f5	-0.016754607
32	0x3d360733	0.04444046
33	0x3c86cce5	0.016455123
34	0x3e292f35	0.16521914
35	0xbdfedecd	-0.124448396
36	0xbd8b6bf7	-0.06807702
37	0xbd2e4161	-0.04254282
38	0x3cfa6911	0.030567678
39	0x3d0f115a	0.034928657
40	0x3e0cd593	0.13753347
41	0xbe570957	-0.20999657
42	0xbc40e777	-0.0117739355
43	0xbe0cd386	-0.13752565
44	0x3e581e79	0.21105374
45	0x3d2cbc9b	0.042172056
46	0xbd8e1f0e	-0.06939517
47	0xbdcb77a9	-0.09934933
48	0xbd244f86	-0.040114902
49	0xbdefc25b	-0.11706992
50	0xbd852b83	-0.0650244
51	0xbd92bad3	-0.0716454
52	0xbc160077	-0.009155384
53	0xbecd6533	-0.4011627
54	0xbe994022	-0.29931742
55	0x3dba4107	0.09094434
56	0xbb19e753	-0.0023483827
57	0xbe330e75	-0.17485984
58	0x3e30ca0c	0.17264575
59	0xbe4b2f8b	-0.19842355
60	0x3d66f6d1	0.056387726
61	0x3d8be22c	0.06830248
62	0x3aa48f5f	0.0012554935
63	0xbe34c1f5	-0.17652114
64	0xbe15be09	-0.14623274
65	0x3e0d786e	0.13815472
66	0x3d6c804a	0.057739533
67	0xbe85a11a	-0.26099473
68	0xbe95f566	-0.29288787
69	0xbd80323e	-0.06259583
70	0xbdbb5cf6	-0.0914859
71	0xbe8a1eaf	-0.26976535
72	0xbd6643b6	-0.056216918
73	0xbe299945	-0.16562374
74	0x3e7d5eee	0.24743244
75	0x3e342770	0.17593169
76	0xbe294930	-0.16531825
77	0xbcc79c60	-0.024366558
78	0x3d7c596c	0.061608717
79	0x3e62c99d	0.22147222
80	0x3d541fb5	0.05178805
81	0xbe7fa533	-0.24965362
82	0x3c9cc8dc	0.019138746
83	0xbd67b077	-0.056564774
84	0x3e9b4521	0.3032618
85	0x3cd527a7	0.026019884
86	0x3e9eb238	0.30995345
87	0x3dc16cd1	0.09444583
88	0xbe8f8738	-0.2803285
89	0x3d9789e3	0.07399347
90	0xbd0f8626	-0.035040043
91	0xbe73c18c	-0.23804301
92	0xbc71ee80	-0.0147663355
93	0xbd9aa5d8	-0.075511634
94	0x3e45e706	0.1932641
95	0xbe3c59a7	-0.18393575
96	0xbe433584	-0.19063383
97	0x3e817618	0.2528541
98	0x3e257b5d	0.1616034
99	0xbe4695b2	-0.19393042
100	0x3e75bea3	0.23998503
101	0xbda2ba2a	-0.07945664
102	0xbe82bbb0	-0.2553382
103	0x3bed013c	0.007232813
104	0xbe658222	-0.22412923
105	0x3e89c8d9	0.26911047
106	0xbdf26f59	-0.11837644
107	0xbd29ac2a	-0.041423954
108	0x3d395551	0.04524738
109	0xbdaf7f9e	-0.08569263
110	0x3c4ad786	0.012380486
111	0x3dc7cb78	0.097556055
112	0xbe748701	-0.23879625
113	0x3eae74ea	0.34073573
114	0xbe631e9d	-0.22179647
115	0x3dd9228d	0.10602293
116	0xbe4e261c	-0.20131725
117	0xbda62fe3	-0.081146024
118	0xbdfb855b	-0.12281295
119	0x3d4d5d40	0.05013776
120	0x3d1c8db5	0.03822108
121	0xbeceb164	-0.40369713
122	0x3d487a76	0.048944913
123	0xbd811558	-0.06302899
124	0x3d4262d1	0.04745752
125	0xbe36f319	-0.17866172
126	0x3e817f3b	0.25292382
127	0x3dc7bd28	0.097528756
128	0x3e1b0620	0.15139055
129	0x3d206ea5	0.03916802
130	0x3e2ae1e8	0.16687739
131	0x3e751a44	0.23935801
132	0xbde81582	-0.11332227
133	0xbc2cd85c	-0.010549631
134	0x3caf3012	0.021385226
135	0xbe125f70	-0.14294219
136	0x3df2ebfa	0.11861415
137	0xbdb5ca6e	-0.08876501
138	0xbbcd225d	-0.0062602
139	0xbe1440a4	-0.14477783
140	0xbdf45e0b	-0.11932
141	0xba3dce03	-0.0007240476
142	0x3cbd2b76	0.023092013
143	0xbe814d0f	-0.25254104
144	0x3da01d2c	0.07818064
145	0x3de19e9f	0.11016583
146	0x3dae7f39	0.085203595
147	0x3e155743	0.14584069
148	0xbda2097e	-0.07911967
149	0x3d4ed244	0.050493494
150	0x3d4eba4e	0.050470643
151	0x3dbb3383	0.091406845
152	0xbdd552c3	-0.10416176
153	0x3d9fb1cd	0.07797585
154	0x3e8ed7ee	0.27899116
155	0xbedbaa39	-0.42903307
156	0xbc2c6761	-0.010522694
157	0x3db59ab7	0.088674
158	0xbd54393c	-0.051812395
159	0xbd06731a	-0.032824613
160	0xbd0c3d3d	-0.03423809
161	0xbd0a9b4d	-0.033839513
162	0x3d4b3d95	0.049619276
163	0xbc83b2b7	-0.016076429
164	0x3d66e1a7	0.056367543
165	0x3df0b43c	0.11753127
166	0xbedafccd	-0.42770997
167	0xbe14d5b1	-0.14534642
168	0xbd904000	-0.07043457
169	0x3cbfda4e	0.023419525
170	0xbd32646a	-0.043552794
171	0xbe1280c5	-0.14306934
172	0x3d6273a1	0.055286054
173	0x3d77b6f0	0.060477197
174	0xbd1ca63e	-0.03824448
175	0x3d804427	0.06262999
176	0xbe0004b9	-0.12501802
177	0xbdc40c68	-0.09572679
178	0xbc8f4a6a	-0.017491538
179	0x3cd32727	0.025775505
180	0x3dcbfdab	0.09960493
181	0xbcb33216	-0.021874469
182	0x3c5c8ae5	0.013460849
183	0xbcd4c48c	-0.025972627
184	0xbdf19f52	-0.11797966
185	0xbd8e75ba	-0.06956048
186	0x3b321c04	0.0027177343
187	0x3da3c28e	0.07996093
188	0xbb20aa3c	-0.002451553
189	0xbd91056a	-0.07081111
190	0x3dfa8dc1	0.12234069
191	0x3d3a7acd	0.04552727
192	0x3e6fd63e	0.2342157
193	0x3d894147	0.06701904
194	0x3d79b45e	0.060963027
195	0x3e1b90ad	0.15191908
196	0xbcee76bb	-0.02910935
197	0xbc92b8e0	-0.01791042
198	0x3e86c08f	0.26318786
199	0xbd8bd804	-0.06828311
200	0x3b4cfd35	0.0031278853
201	0xbe03d67d	-0.1287479
202	0x3d9824b0	0.074288726
203	0x3df6b804	0.12046817
204	0x3e392eb6	0.18084225
205	0xbd47dfe0	-0.04879749
206	0xbd09235a	-0.03348098
207	0xbe2aed19	-0.16692008
208	0xbc4ecd8a	-0.0126222465
209	0xbbd5acf8	-0.0065208636
210	0xbe1dedef	-0.15422796
211	0xbda28e29	-0.07937271
212	0xbccb32fb	-0.024804583
213	0x3d1bf9d0	0.038080037
214	0x3cfb4be5	0.030675838
215	0xbe48e2f1	-0.19617821
216	0x3dffd972	0.12492646
217	0xbe414d22	-0.1887708
218	0xbea1056d	-0.31449452
219	0xbd3f527f	-0.046709534
220	0xbd3a417e	-0.045472614
221	0xbe0a22c0	-0.13489819
222	0xbe4e54be	-0.20149514
223	0xbd9e6068	-0.07733232
224	0x3ca30955	0.01990191
225	0x3ddc2ef3	0.10751142
226	0xbd515b17	-0.05111226
227	0xbdee47a0	-0.11634755
228	0x3e9b3154	0.30311072
229	0xbe30cb41	-0.17265035
230	0xbe13480a	-0.1438295
231	0x3d496ae3	0.0491742
232	0xbde71115	-0.11282555
233	0xbb2450a3	-0.0025072477
234	0xbd0d054c	-0.03442888
235	0xbc16d01e	-0.009204892
236	0xbd295277	-0.04133841
237	0xbe8a895f	-0.2705793
238	0xbc9fcf09	-0.019507902
239	0x3e2914d6	0.16511855
240	0xbe3cc091	-0.18432833
241	0x3d995130	0.074861884
242	0x3e7b930a	0.2456781
243	0xbdf2bec7	-0.11852794
244	0xbd525692	-0.05135209
245	0xbde90fcf	-0.113799684
246	0xbca2d600	-0.019877434
247	0xbcc3429c	-0.023835473
248	0x3ca9c441	0.020723464
249	0x3e361691	0.17782046
250	0x3da9a768	0.08283883
251	0xbdf230a7	-0.11825686
252	0x3daa49dd	0.083148696
253	0x3d60796e	0.054803304
254	0x3d84a40f	0.06476604
255	0x3c1f0364	0.009705398

fc2.bias f4 [32]
0	0x3d404b63	0.046946894
1	0xbd6c75a7	-0.05772939
2	0x3e421d86	0.18956575
3	0xbd474082	-0.048645504
4	0x3d84ab3a	0.064779714
5	0x3c9aa052	0.018875275
6	0x3dc5f419	0.096656986
7	0xbd07f27b	-0.03319023
8	0x3cf43952	0.029812489
9	0x3e435b96	0.19077906
10	0x3dd74538	0.10511249
11	0xbc4d0545	-0.012513463
12	0xbdda0d55	-0.10647074
13	0x3db00df2	0.0859641
14	0xbe17177b	-0.14755051
15	0x3e502de6	0.20330009
16	0xbd02b35a	-0.031909324
17	0x3cbe8dba	0.02326094
18	0x3da23eed	0.079221584
19	0xbc2440f2	-0.01002525
20	0x3d963e7a	0.07336135
21	0xbdf70124	-0.120607644
22	0x3d3d32b1	0.04619092
23	0x3c187ba1	0.009306819
24	0xbbfd71a0	-0.0077344924
25	0xbc671fe4	-0.014106724
26	0x3bbd758c	0.005781835
27	0x3d992c76	0.074791834
28	0x3ddfb292	0.109227315
29	0x3da6a7a0	0.08137441
30	0x3cd3a27c	0.025834315
31	0xbcd597f6	-0.026073437

fc3.weight f4 [4, 32]
0	0x3e9be77d	0.3045005
1	0x3d02fbbb	0.03197835
2	0x3e1cccc4	0.15312487
3	0x3da261a2	0.07928778
4	0x3e889bac	0.26681268
5	0xbe0aa755	-0.13540395
6	0x3e657eaf	0.22411607
7	0xbe7a530d	-0.24445744
8	0x3a1ffad0	0.00061027426
9	0x3d605de9	0.05477706
10	0xbef0c8c8	-0.47028184
11	0xbdf79562	-0.120890394
12	0x3ce7b18d	0.028282905
13	0xbc33f72c	-0.010984223
14	0xbe6c8b0b	-0.23099916
15	0x3e022d6b	0.12712638
16	0xbe3ac5f3	-0.18239574
17	0xbda03ece	-0.07824479
18	0x3e35d089	0.17755331
19	0xbe3b8db1	-0.1831577
20	0x3e502758	0.20327508
21	0x3d96a56a	0.07355769
22	0xbeea2bc7	-0.45736524
23	0x3e01d5e2	0.12679246
24	0x3e0c3789	0.1369306
25	0x3e531d10	0.20616555
26	0x3e806164	0.25074303
27	0x3db4ba40	0.08824587
28	0x3e302b46	0.17204008
29	0x3e0a6cf0	0.13518119
30	0x3d48ba65	0.049005885
31	0x3dd380a5	0.10327271
32	0x3e34aa67	0.17643128
33	0x3e449de9	0.19200863
34	0x3e116444	0.14198405
35	0x3e37808f	0.17920135
36	0x3e04cc11	0.1296847
37	0xbcb8ba0c	-0.022549652
38	0x3e26fb29	0.16306747
39	0x3ddbd9e2	0.10734917
40	0xbec9e001	-0.39428714
41	0x3df1ece5	0.11812762
42	0xbe36121f	-0.1778035
43	0xbd759abf	-0.05996203
44	0xbe934908	-0.28766656
45	0x3e1bd480	0.15217781
46	0x3dd5cb0e	0.1043912
47	0x3dbe82d7	0.093022995
48	0xbd8693dd	-0.065711714
49	0xbed9bc8f	-0.4252667
50	0x3daa80d4	0.08325353
51	0xbe41ed48	-0.18938172
52	0x3dfc7ae3	0.12328126
53	0x3cc2c8c6	0.023777377
54	0x3def8a40	0.11696291
55	0x3dd2a12c	0.10284647
56	0xbd706da3	-0.058698308
57	0x3e69f5ce	0.22847673
58	0x3dd48320	0.103765726
59	0xbdb73ec5	-0.08947519
60	0x3dfe64ae	0.12421547
61	0x3db9209e	0.09039424
62	0x3da42001	0.08013917
63	0x3e56f42a	0.20991579
64	0x3effdbe6	0.49972457
65	0xbe59551c	-0.21223873
66	0x3e3165f5	0.1732405
67	0x3d73a74d	0.059485722
68	0x3e24b1a5	0.16083391
69	0x3e005a3d	0.12534423
70	0xbe8c3081	-0.27380756
71	0x3de805cc	0.11329231
72	0x3e1897e1	0.14901687
73	0x3da81c0a	0.08208473
74	0xbc1c8593	-0.009553331
75	0x3c43e786	0.011957055
76	0xbe6175f0	-0.22017646
77	0x3e881e6d	0.26585713
78	0x3e83b167	0.25721285
79	0x3e2a7ad5	0.16648419
80	0x3e458f7a	0.19293013
81	0x3ce0a7ce	0.027423766
82	0x3e1bb1f1	0.15204598
83	0xbe5d1fed	-0.2159421
84	0x3ce37d23	0.02776963
85	0xbdbe1040	-0.09280443
86	0xbeafd87c	-0.34344852
87	0x3df28674	0.11842051
88	0x3cf384d3	0.029726421
89	0x3e1e5918	0.15463674
90	0xbd3e9c5b	-0.04653583
91	0xbe63d10b	-0.22247712
92	0x3e06f796	0.13180384
93	0xbc34da98	-0.011038445
94	0x3e873dc5	0.26414314
95	0xbd2195d1	-0.039449517
96	0x3d14f886	0.036369823
97	0x3e9e4410	0.30911303
98	0x3e4c21cf	0.19934772
99	0x3ec473c8	0.38369584
100	0x3e4f0c1a	0.2021946
101	0xbd95595e	-0.07292436
102	0x3de33349	0.11093766
103	0x3e9124c2	0.28348356
104	0x3d1f2bc5	0.0388601
105	0x3db1004d	0.086426355
106	0x3e0f3ff2	0.13989237
107	0xbe8b0cad	-0.27158108
108	0xbe7914f5	-0.243244
109	0x3de69193	0.11258235
110	0x3e4ecd4a	0.20195499
111	0xbd437a97	-0.047724333
112	0x3e33ac10	0.17546105
113	0xbca31a6b	-0.019910058
114	0x3da7269e	0.081616625
115	0xbea4d353	-0.32192478
116	0xbea6fc99	-0.32614592
117	0xbda34455	-0.07972018
118	0xbe0f0c56	-0.1396955
119	0x3e38e81d	0.18057294
120	0x3e64f300	0.22358322
121	0xbdf2c4db	-0.118539535
122	0x3e9f652f	0.31131884
123	0xbebea968	-0.37238622
124	0x3e44106a	0.19146886
125	0xbdb445ad	-0.08802352
126	0xbee2d908	-0.44306207
127	0x3e12fcb2	0.14354208

fc3.bias f4 [4]
0	0xbae2da91	-0.001730757
1	0x3c145648	0.009053774
2	0x3ca3d110	0.01999715
3	0x3d873b0b	0.066030584
